yoga_fulldatamodel_test.pth (torch, 261511 bytes, 10 tensors)

rnn.weight_ih_l0 f4 [320, 99]
-0.061789457 -0.043689247 0.14702982 0.14056227 0.026406888 0.05851699 0.03435937 0.12476778
-0.0035479043 -0.038221072 0.02140719 -0.011281586 -0.064969696 0.121183224 0.13494165 0.0759795
0.09649568 0.1570101 -0.057535715 0.057221305 0.032494605 0.05269795 0.109012626 0.07518504
-0.018471288 0.059304528 0.098484926 0.072560474 0.083372965 -0.019227592 0.08050021 -0.0041932142
0.09647625 -0.00074193353 0.156727 0.20777267 0.014229129 0.14054784 0.13836393 -0.009365022
0.09545267 0.18332483 -0.06913158 0.08527534 -0.10612167 -0.0038376853 0.026227638 0.1720134
0.094035916 -0.03596449 -0.068814345 -0.013677058 -0.005336025 0.13512151 0.01936375 -0.049749754
-0.014330902 -0.07138992 0.067370676 0.12519315 0.070396565 -0.046021543 -0.07698331 0.09642556
-0.054993793 0.07193729 0.0407313 0.10665464 0.065322004 0.041826714 -0.013418834 0.012878659
-0.061486855 0.0750539 -0.1969757 0.07722073 0.043361902 -0.25653842 0.13891661 0.1309166
-0.1371031 0.072933935 0.06929253 0.009796982 -0.033020087 -0.04360957 -0.08615383 0.030473925
-0.05098859 0.20291916 0.12535995 0.10475953 -0.13644779 -0.06954176 -0.063327104 0.16317822
-0.037808727 -0.07205109 0.1072668 0.10231184 0.16244288 -0.06509042 0.039714877 -0.02158222
0.13299513 0.10687149 -0.008257728 -0.056859046 0.17486462 -0.0047284206 -0.049914185 0.08954056
-0.0047626453 0.09024423 0.09332128 -0.028282544 -0.067489214 0.11218107 0.11436136 0.017337332
0.16263221 0.10103078 0.18351139 0.02503663 0.10676683 0.1608293 0.05878081 0.12734659
0.11067116 -0.0049136076 -0.0037205084 0.03901022 0.12627667 0.0011296524 0.045865413 0.07927845
0.13461588 0.08923254 0.12364462 -0.022112207 0.15750875 0.08046717 0.1613988 -0.003985572
0.12576713 0.12060884 0.080787644 0.010821884 0.1614958 0.014958485 0.09315146 0.0013030396
-0.048193544 0.06754487 0.15361634 -0.0012546158 0.16160913 -0.014272425 0.12612441 -0.005187307
-0.038888857 -0.09232659 -0.03833377 0.027865533 0.050247382 0.14311999 0.0028023294 0.014540595
0.12500592 -0.0037038783 -0.070514046 0.06976733 0.15559357 0.07769682 0.20952472 0.023573505
-0.4517277 0.11857516 0.03639984 -0.35432458 0.077206396 0.04152745 -0.034805067 0.03656524
0.043263953 0.05502888 0.14184563 0.07189438 0.08459341 0.20387535 0.005428593 -0.06960771
-0.0053050574 0.14624313 0.26486787 0.0519653 0.051026437 0.17076696 -0.1182016 -0.25363192
0.10646009 -0.08423814 -0.17176485 -0.0112250615 -0.04848049 -0.27482828 -0.009812668 0.008903981
-0.23840049 -0.040847193 -0.11722528 -0.259592 0.13461666 -0.119851485 -0.1670389 0.15818085
-0.017061418 -0.12100943 0.082445875 -0.10926525 -0.10447948 0.076249585 -0.13411167 -0.26477304
0.08040601 -0.060890198 -0.22696444 0.11055 0.049410403 -0.15870579 0.17635608 0.045233935
-0.18274307 0.07074851 -0.012520639 -0.1927893 0.111877374 -0.03444725 -0.17413351 0.11081876
0.036851864 -0.191704 0.11621833 -0.14742295 -0.07611598 0.0048508854 0.03401518 -0.18231092
0.016143931 -0.06716964 -0.18992426 -0.045705274 0.07695876 -0.13110095 0.035307202 -0.07273157
00000000: f116 7dbd 7ff3 32bd fc8e 163e 8eef 0f3e
00000010: 4253 d83c 83af 6f3d 69bc 0c3d 4086 ff3d
00000020: f583 68bb b38d 1cbd 225e af3c 67d6 38bc
00000030: d50e 85bd e92e f83d 252e 0a3e 249b 9b3d
00000040: 879f c53d 41c7 203e 92aa 6bbd e360 6a3d
00000050: 1019 053d ced9 573d 0342 df3d 9dfa 993d
00000060: 1951 97bc 4ee9 723d 77b2 c93d 969a 943d
00000070: 72bf aa3d 2f83 9dbc 4bdd a43d 3b67 89bb
00000080: 5795 c53d 517e 42ba 0b7d 203e 5cc2 543e
00000090: 4b21 693c c6eb 0f3e 46af 0d3e c06f 19bc
000000a0: b07c c33d 81b9 3b3e dc94 8dbd d6a4 ae3d
000000b0: 5156 d9bd ad81 7bbb 58db d63c 4824 303e
000000c0: e795 c03d 804f 13bd 89ee 8cbd bd15 60bc
000000d0: d2d9 aebb 4b5d 0a3e baa0 9e3c 66c6 4bbd
000000e0: 29cc 6abc e134 92bd a3f9 893d a232 003e
000000f0: 132c 903d 1681 3cbd 6da9 9dbd c47a c53d
00000100: 2c41 61bd dc53 933d ddd5 263d bf6d da3d
00000110: 8bc7 853d 7d52 2b3d abda 5bbc 0301 533c
00000120: a4d9 7bbd dcb5 993d ffb3 49be e725 9e3d
00000130: 409c 313d 0159 83be 2840 0e3e 000f 063e
00000140: c164 0cbe 635e 953d 3ee9 8d3d 8583 203c
00000150: 1240 07bd f39f 32bd 6b71 b0bd 74a4 f93c
00000160: 69d9 50bd 0aca 4f3e 5c5e 003e 2a8c d63d
00000170: f8b8 0bbe e96b 8ebd a4b1 81bd 3118 273e
00000180: 53dd 1abd 868f 93bd b2ae db3d df88 d13d
00000190: 6d57 263e 204e 85bd 11ac 223d 32cd b0bc
000001a0: e02f 083e 71df da3d 6c4b 07bc 08e5 68bd
000001b0: b60f 333e def0 9abb d172 4cbd 0b61 b73d
000001c0: f70f 9cbb f8d1 b83d 3a1f bf3d cbb0 e7bc
000001d0: c937 8abd 30bf e53d 4a36 ea3d 0507 8e3c
000001e0: 0f89 263e 3ae9 ce3d 69ea 3b3e 9e19 cd3c
000001f0: 91a8 da3d 70b0 243e 26c4 703d 2567 023e
00000200: 90a7 e23d 5402 a1bb c6d3 73bb 2ec9 1f3d
00000210: ac4e 013e d810 943a 5fdd 3b3d bd5c a23d
00000220: bfd8 093e 8dbf b63d 6439 fd3d a924 b5bc
00000230: f949 213e f9cb a43d ba45 253e 6799 82bb
00000240: 19c9 003e c401 f73d fe73 a53d 454e 313c
00000250: 285f 253e 6f14 753c 31c6 be3d c1ca aa3a
00000260: 9866 45bd f754 8a3d 9a4d 1d3e ec71 a4ba
00000270: dd7c 253e e4d6 69bc c226 013e 49fa a9bb
00000280: ec49 1fbd b915 bdbd df03 1dbd 4246 e43c
00000290: 33d0 4d3d 0c8e 123e 49a7 373b ad3b 6e3c
000002a0: 8d01 003e c4bc 72bb ab69 90bd 2de2 8e3d
000002b0: ec53 1f3e 831f 9f3d a68d 563e 391d c13c
000002c0: da48 e7be 89d7 f23d 0018 153d 086a b5be
000002d0: 631e 9e3d b018 2a3d c28f 0ebd 6fc5 153d
000002e0: 8b35 313d f665 613d fb3f 113e 5c3d 933d
000002f0: 4f3f ad3d b3c4 503e 57e2 b13b 7d8e 8ebd
00000300: 0cd6 adbb c2c0 153e c39c 873e 91d9 543d
00000310: 1901 513d 89dd 2e3e ae13 f2bd 0bdc 81be
00000320: bf07 da3d 0c85 acbd 20e3 2fbe 52e9 37bc
00000330: 7a93 46bd 4bb6 8cbe 50c5 20bc 01e2 113c
00000340: 421f 74be 634f 27bd cf13 f0bd 3ee9 84be
00000350: f3d8 093e b274 f5bd 3f0c 2bbe 29fa 213e
00000360: 63c4 8bbc cbd3 f7bd 62d9 a83d 76c6 dfbd
00000370: 56f9 d5bd be28 9c3d 9254 09be 5590 87be
00000380: e8ab a43d 0068 79bd 5e69 68be 0a68 e23d
00000390: 9062 4a3d c583 22be b096 343e 3847 393d
000003a0: 0021 3bbe 98e4 903d 5e23 4dbc 8f6a 45be
000003b0: f71f e53d 8f18 0dbd 0e50 32be f2f4 e23d
000003c0: fbf1 163d 0e4e 44be e003 ee3d 0bf6 16be
000003d0: b2e2 9bbd 2df4 9e3b 8053 0b3d b7af 3abe
000003e0: 4740 843c 3c90 89bd 817b 42be 7435 3bbd
000003f0: 8e9c 9d3d 543f 06be 499e 103d 4af4 94bd

rnn.weight_hh_l0 f4 [320, 80]
0.03385647 -0.006118401 0.031087331 -0.104463436 0.046498723 0.0071577406 0.13618699 0.05805891
-0.011118336 0.048238963 0.113366425 0.06764992 -0.0034406164 -0.06997443 0.10436217 -0.19489847
0.033225164 -0.14558655 -0.03856604 -0.013540453 0.044114344 0.12196904 0.076057486 0.0021631946
-0.01434045 -0.122716255 0.026896168 -0.080617346 0.023154883 -0.11709631 -0.06416919 -0.020181512
-0.11179326 0.024431359 -0.011148958 0.117379345 -0.10806435 0.08801735 -0.027812367 -0.08418934
0.089054994 -0.016238563 -0.0031496617 -0.012570527 0.090527855 0.026901353 0.09700862 0.0834939
-0.017796086 -0.051079273 -0.00621257 0.112989664 0.011601212 0.085277714 0.06557776 0.12526728
0.011727872 0.060992833 -0.004768739 0.08069671 0.014438237 -0.102789454 0.03412031 -0.01900335
0.09432478 0.05334917 0.034272365 0.06299984 -0.038528096 0.08624405 -0.12550338 0.13630545
-0.035027906 -0.023154829 -0.0574191 -0.0351517 0.03312162 -0.06129639 -0.013137974 0.036513407
0.0330369 0.12416739 0.10284319 -0.095908836 0.16720332 0.13207759 0.21028984 0.10382648
-0.08682554 0.07379008 -0.06592773 0.07868096 -0.040847488 -0.13647941 0.002493581 -0.008076428
-0.060342673 -0.048951544 0.02613609 -0.059003223 0.047047902 0.017993279 -0.07467329 0.06804024
-0.019843424 0.00014921196 0.08680648 -0.0042490195 -0.007528686 -0.08544374 -0.079867385 0.15496722
0.059768286 -0.1262903 0.067959264 0.08264809 -0.057463937 0.012021036 0.17722796 -0.08421002
-0.018516392 -0.04594114 -0.039459918 -0.12384316 0.15245499 0.05567059 0.114857025 -0.035751987
-0.06934729 0.036630828 0.0840921 0.108135656 0.028131584 0.07666483 0.025794106 0.11773179
-0.08939157 -0.09772968 -0.041664418 0.057351675 0.10858982 -0.036390692 0.04088446 -0.023318257
-0.04771369 -0.0633933 0.115517184 0.07775722 0.030478952 0.050639953 -0.12665375 -0.016671864
-0.013313918 -0.11665499 0.05870159 -0.07887201 0.0742192 0.031168845 0.0023553178 -0.15621497
-0.059618976 0.037347928 -0.07897799 -0.05377103 0.022757158 -0.020926904 0.24522126 0.0661922
0.052053347 -0.0004726159 0.10067064 0.046016335 0.025388543 -0.035704948 0.03716973 -0.053520538
0.06821974 -0.05492698 0.11173545 0.026454343 -0.05858953 0.083561555 0.008289209 0.11108763
0.008982722 -0.036643878 -0.11960382 0.04435723 0.07784598 -0.19158506 0.026899327 0.05166479
-0.01895646 -0.2067035 0.09740027 -0.09668331 -0.047920004 -0.12611459 0.001108569 -0.12337993
-0.046404958 0.10500871 -0.104322344 -0.046143323 0.030263672 -0.047382843 0.11863481 0.089335546
-0.0075353133 -0.06559214 0.11597199 -0.013900423 0.0029441726 -0.03686132 0.083995216 -0.08872372
-0.06345653 -0.0772178 0.10451907 0.055266872 0.081475325 0.11804226 -0.052250642 0.036823086
0.05626255 -0.050294124 -0.030565415 0.014494053 0.032992207 0.08369674 0.06956283 0.13569632
-0.15040658 -0.10124533 -0.1848378 0.003065404 0.0861736 -0.11494175 -0.07883302 -0.030544005
-0.020770404 -0.088375635 -0.017542701 0.09246531 -0.052025035 -0.13571055 0.047067914 -0.026340583
-0.1513407 0.08853271 -0.050118797 0.0032267144 -0.040985808 -0.06416943 -0.07903503 -0.0035791884
00000000: 15ad 0a3d de7c c8bb dcaa fe3c edf0 d5bd
00000010: 7275 3e3d 7b8b ea3b 9a74 0b3e 2ecf 6d3d
00000020: ae29 36bc 3896 453d a82c e83d 0b8c 8a3d
00000030: f77b 61bb c14e 8fbd d5bb d53d 7793 47be
00000040: 1c17 083d a414 15be 6df7 1dbd c7d8 5dbc
00000050: 3eb1 343d e7ca f93d 07c4 9b3d 62c4 0d3b
00000060: 35f4 6abc a952 fbbd 5a55 dc3c b51a a5bd
00000070: 4faf bd3c 31d0 efbd 236b 83bd b353 a5bc
00000080: ddf3 e4bd 4624 c83c 1eaa 36bc 9564 f03d
00000090: d850 ddbd 7142 b43d c3d6 e3bc 766b acbd
000000a0: 7762 b63d bc06 85bc 8e6a 4ebb 9df4 4dbc
000000b0: ab66 b93d 3a60 dc3c 75ac c63d dafe aa3d
000000c0: 19c9 91bc 8038 51bd d092 cbbb 2067 e73d
000000d0: 0313 3e3c 15a6 ae3d a24d 863d 1146 003e
000000e0: 4326 403c 9fd3 793d 1543 9cbb 5144 a53d
000000f0: 5b8e 6c3c 4783 d2bd bdc1 0b3d eaac 9bbc
00000100: 5a2d c13d a984 5a3d 2e61 0c3d 0f06 813d
00000110: a3cf 1dbd b8a0 b03d f583 00be a893 0b3e
00000120: 6c79 0fbd 32af bdbc 4a30 6bbd 3bfb 0fbd
00000130: 89aa 073d ec11 7bbd a840 57bc 158f 153d
00000140: b351 073d 794b fe3d 739f d23d da6b c4bd
00000150: 5937 2b3e 593f 073e 3856 573e faa2 d43d
00000160: 97d1 b1bd 411f 973d 1e05 87bd 7c23 a13d
00000170: b24f 27bd 42c1 0bbe 596b 233b ff52 04bc
00000180: e129 77bd 6a81 48bd 5a1b d63c 5dad 71bd
00000190: 4db5 403d a466 933c 4fee 98bd ae58 8b3d
000001a0: ad8e a2bc c875 1c39 99c7 b13d 5c3b 8bbb
000001b0: 32b3 f6bb 21fd aebd 8391 a3bd baaf 1e3e
000001c0: 97cf 743d 3f52 01be 3a2e 8b3d 6743 a93d
000001d0: 4e5f 6bbd e1f3 443c 3f7b 353e 4e76 acbd
000001e0: b0af 97bc c72c 3cbd b9a0 21bd 7ca1 fdbd
000001f0: 291d 1c3e d806 643d 293a eb3d ad70 12bd
00000200: f405 8ebd 350a 163d 7b38 ac3d 3a76 dd3d
00000210: 3574 e63c 7302 9d3d 294e d33c 5d1d f13d
00000220: ed12 b7bd 8026 c8bd 4fa8 2abd 97e9 6a3d
00000230: 5764 de3d 680e 15bd 7776 273d ee05 bfbc
00000240: 6e6f 43bd 59d4 81bd 4694 ec3d 2d3f 9f3d
00000250: ffae f93c d76b 4f3d 85b1 01be 6f93 88bc
00000260: 9f22 5abc d0e8 eebd 1471 703d a687 a1bd
00000270: 3c00 983d ce55 ff3c ad5b 1a3b d1f6 1fbe
00000280: 0733 74bd 24fa 183d 36bf a1bd 033f 5cbd
00000290: 386d ba3c e66e abbc 481b 7b3e c78f 873d
000002a0: e435 553d 6fc9 f7b9 692c ce3d a07b 3c3d
000002b0: a2fb cf3c 5a3f 12bd 493f 183d 5a38 5bbd
000002c0: cbb6 8b3d 1dfb 60bd 8ed5 e43d c7b6 d83c
000002d0: 93fb 6fbd 5222 ab3d 76cf 073c e981 e33d
000002e0: 442c 133c e417 16bd d9f2 f4bd edaf 353d
000002f0: b76d 9f3d e02e 44be fa5b dc3c 759e 533d
00000300: 944a 9bbc 15aa 53be cb79 c73d e601 c6bd
00000310: c447 44bd 2f24 01be 674d 913a 9eae fcbd
00000320: 2013 3ebd ce0e d73d f4a6 d5bd c800 3dbd
00000330: 85eb f73c 8314 42bd cff6 f23d 8ef5 b63d
00000340: caea f6bb 2c55 86bd b982 ed3d 9abe 63bc
00000350: 05f3 403b e5fb 16bd af05 ac3d c8b4 b5bd
00000360: 7ff5 81bd 5e24 9ebd 180e d63d 845f 623d
00000370: 89dc a63d 24c0 f13d c504 56bd ced3 163d
00000380: 8f73 663d 3601 4ebd 5264 fabc 7778 6d3c
00000390: d622 073d 3269 ab3d f576 8e3d faf3 0a3e
000003a0: 2f04 1abe b659 cfbd 1f46 3dbe f2e4 483b
000003b0: c97b b03d 9566 ebbd 3573 a1bd 6c37 fabc
000003c0: b226 aabc 49fe b4bd b6b5 8fbc 745e bd3d
000003d0: 3418 55bd b5f7 0abe 49ca 403d 35c8 d7bc
000003e0: 0ef9 1abe a350 b53d 5e49 4dbd 4977 533b
000003f0: bce0 27bd 436b 83bd 1edd a1bd d190 6abb

rnn.bias_ih_l0 f4 [320]
-0.009206577 0.02009127 0.009125062 -0.06405971 0.025049673 -0.051180813 0.08275883 0.053581603
0.17468679 0.009680294 -0.16903797 0.039636884 -0.15215965 0.04693198 -0.043105133 -0.032167733
-0.10357371 -0.016929021 0.3205509 0.037601862 -0.12436851 0.12213614 -0.01321363 0.026435474
-0.081864186 -0.016936231 0.042117134 0.20911741 -0.01987302 -0.07751057 -0.15290686 0.121185586
-0.042500492 -0.0033810125 0.1634179 0.056936625 -0.20914517 0.069263496 0.17853282 0.32843438
0.10423948 -0.049259525 0.13611633 -0.01373708 0.18826482 0.024543703 0.31040037 -0.20371698
-0.025033854 -0.09877478 0.15344416 0.14191888 0.16670801 -0.037668154 0.07018134 0.13360527
0.01031066 0.014764016 0.0070769857 -0.1772395 0.06486688 -0.07684779 -0.06922539 0.038262263
-0.109549545 -0.116111785 0.020585164 -0.010799741 0.030408917 -0.03720548 -0.16541764 -0.0149973575
-0.04195092 -0.07341095 -0.049645353 -0.23938227 0.0016511753 -0.023396488 -0.06316713 0.2506871
0.06943831 0.03576037 -0.0154020805 0.010002678 -0.22969379 -0.16055104 -0.22803354 -0.27963784
-0.031910397 -0.11878266 -0.0244375 0.13211542 -0.16951644 -0.26395383 0.1733905 -0.1833887
-0.09752018 -0.14778604 -0.23093915 -0.09345178 -0.04196841 -0.25865728 -0.15482584 -0.043087296
0.0155614065 -0.16661684 -0.17264937 -0.03316814 -0.11144125 -0.17642869 -0.2075245 -0.17545965
6.800463e-05 -0.25668728 0.065455 -0.058727868 -0.058937944 -0.105054595 -0.1698153 -0.3011895
-0.044137742 -0.057045225 -0.32023993 -0.39549252 -0.042400368 -0.23740403 -0.17367823 0.0004172221
-0.11726862 -0.19485962 -0.28618577 -0.14130987 -0.27994585 -0.08455544 -0.29629233 0.06407918
-0.09069841 0.0553621 -0.15071413 -0.036032334 -0.2417318 -0.13860898 0.023461044 -0.031433113
-0.10092049 -0.040272694 -0.1305077 -0.019605465 -0.15174972 -0.2429214 0.015388977 -0.17883137
-0.21476535 -0.021764176 -0.23250008 -0.05365714 0.10115864 -0.04860195 -0.060364727 -0.29041028
0.11057486 0.13509524 0.089700446 -0.08160046 -0.093609706 0.03477411 -0.055520497 -0.032863155
0.006466191 -0.09496168 0.03148814 0.124937475 0.03397041 0.12104079 0.13606714 0.0037058394
-0.043303307 -0.023311146 0.031274866 -0.06826764 -0.09739079 -0.0787835 0.04024794 -0.04158083
-0.1199676 0.032847706 0.1909796 0.014254723 -0.07845692 -0.0017346878 -0.0146838445 -0.12321084
-0.09043204 -0.022736527 0.020559153 0.07881453 -0.008714833 0.054139886 -0.11914017 0.07539952
-0.051324647 -0.04947546 -0.04031316 -0.03203043 -0.055614885 -0.05070362 -0.15719846 -0.06292594
-0.033873405 -0.02992848 -0.022595584 0.08181616 -0.046003524 0.12779358 -0.0654167 0.11741981
0.022776823 -0.061413128 -0.077847235 -0.015304171 -0.1357745 -0.13009627 0.0724394 0.20615926
-0.01120949 -0.07340554 0.119493015 0.036895655 -0.16530074 0.016779313 -0.011520811 -0.09327472
0.1623595 -0.10403878 -0.02506356 0.044436533 0.0027685573 0.08303035 -0.107780285 -0.0043063904
-0.18740356 -0.2040387 -0.099169016 0.0197687 -0.19244862 -0.053146258 0.051549092 -0.1566993
-0.14466743 -0.06841352 -0.2074214 -0.21910174 0.017269466 -0.048299085 -0.27094722 0.07486142
00000000: 2fd7 16bc 7296 a43c 4981 153c bd31 83bd
00000010: f934 cd3c f9a2 51bd 767d a93d 6278 5b3d
00000020: 18e1 323e 199a 1e3c 4a18 2dbe 495a 223d
00000030: bdcf 1bbe bf3b 403d 028f 30bd 50c2 03bd
00000040: 741e d4bd bbae 8abc 3f1f a43e 6904 1a3d
00000050: ebb4 febd 8322 fa3d fb7d 58bc 358f d83c
00000060: 69a8 a7bd dabd 8abc 0483 2c3d e022 563e
00000070: becc a2bc ddbd 9ebd 9e93 1cbe 2630 f83d
00000080: ff14 2ebd fa93 5dbb 0657 273e 6136 693d
00000090: 272a 56be 05da 8d3d 4fd1 363e 8d28 a83e
000000a0: 827b d53d 5bc4 49bd 1462 0b3e 7d11 61bc
000000b0: 7ec8 403e e00f c93c ccec 9e3e 2f9b 50be
000000c0: cc13 cdbc 6f4a cabd 7720 1d3e 2f53 113e
000000d0: 81b5 2a3e ec49 1abd 3cbb 8f3d d2cf 083e
000000e0: 0bee 283c c5e4 713c 0fe6 e73b 467e 35be
000000f0: edd8 843d 6062 9dbd 0bc6 8dbd e4b8 1c3d
00000100: 835b e0bd 04cc edbd 38a2 a83c 66f1 30bc
00000110: 1f1c f93c c664 18bd 3e63 29be 7ab7 75bc
00000120: bad4 2bbd 7b58 96bd ed58 4bbd a020 75be
00000130: 406c d83a fea9 bfbc c55d 81bd 0f5a 803e
00000140: ac35 8e3d 7779 123d 0259 7cbc 46e2 233c
00000150: d934 6bbe 7e67 24be a081 69be b12c 8fbe
00000160: 7ab4 02bd 5344 f3bd 2731 c8bc 4449 073e
00000170: b895 2dbe f524 87be 478d 313e 3fca 3bbe
00000180: a9b8 c7bd 3955 17be 507b 6cbe a663 bfbd
00000190: 11e7 2bbd ba6e 84be aa8a 1ebe 4e7c 30bd
000001a0: 45f5 7e3c 9b9d 2abe ffca 30be 51db 07bd
000001b0: 4f3b e4bd b9a9 34be 4d81 54be b2ab 33be
000001c0: b59d 8e38 846c 83be 450d 863d a28c 70bd
000001d0: ea68 71bd dd26 d7bd 10e4 2dbe 8335 9abe
000001e0: c7c9 34bd 41a8 69bd 7df6 a3be ff7d cabe
000001f0: 02ac 2dbd 0b1a 73be b5d8 31be 9abe da39
00000200: 882a f0bd 4889 47be f186 92be 89b3 10be
00000210: 1055 8fbe 672b adbd a1b3 97be f23b 833d
00000220: 17c0 b9bd 5fc3 623d ce54 1abe a496 13bd
00000230: 8a88 77be 83ef 0dbe 6031 c03c 02c0 00bd
00000240: 67af cebd fbf4 24bd cfa3 05be a49b a0bc
00000250: 4764 1bbe 63c0 78be 0c22 7c3c 921f 37be
00000260: 73eb 5bbe c94a b2bc 8014 6ebe 97c7 5bbd
00000270: 432c cf3d d712 47bd 0141 77bd a8b0 94be
00000280: 1275 e23d 6856 0a3e deb4 b73d 241e a7bd
00000290: 72b6 bfbd 4c6f 0e3d 7669 63bd 849b 06bd
000002a0: 57e2 d33b 457b c2bd b5f9 003d 38df ff3d
000002b0: 8e24 0b3d 3ce4 f73d 2f55 0b3e abdd 723b
000002c0: cf5e 31bd 04f7 bebc 131a 003d e8cf 8bbd
000002d0: d374 c7bd 3e59 a1bd 06db 243d a950 2abd
000002e0: 93b1 f5bd 518b 063d 2890 433e a48c 693c
000002f0: 06ae a0bd 775e e3ba 8294 70bc f755 fcbd
00000300: 6f34 b9bd f441 babc ab6b a83c 8369 a13d
00000310: a9c8 0ebc c9c1 5d3d c3ff f3bd 106b 9a3d
00000320: cb39 52bd c8a6 4abd 691f 25bd 5732 03bd
00000330: 6fcc 63bd 99ae 4fbd a2f8 20be 51df 80bd
00000340: d7be 0abd 922c f5bc 601a b9bc 3b8f a73d
00000350: 316e 3cbd 52dc 023e 31f9 85bd cc79 f03d
00000360: 7696 ba3c 558c 7bbd 5f6e 9fbd 58be 7abc
00000370: 7808 0bbe f537 05be 1c5b 943d 6a1b 533e
00000380: 02a8 37bc a555 96bd c1b8 f43d e61f 173d
00000390: 9944 29be c574 893c c9c1 3cbc d106 bfbd
000003a0: 9241 263e 4912 d5bd 1852 cdbc 1503 363d
000003b0: af70 353b d10b aa3d e9bb dcbd 9f1c 8dbb
000003c0: b8e6 3fbe 85ef 50be 2019 cbbd f8f1 a13c
000003d0: 4011 45be e4af 59bd 2425 533d c875 20be
000003e0: b323 14be 631c 8cbd 4766 54be 355c 60be
000003f0: b278 8d3c 43d5 45bd 98b9 8abe f250 993d

rnn.bias_hh_l0 f4 [320]
0.05637886 -0.019421961 -0.07138587 -0.0776053 0.046584222 0.032388847 0.08371811 0.10346785
0.16429302 -0.036937147 -0.13461879 -0.021402398 -0.087330006 -0.036076788 0.0057649044 0.08555981
-0.15848294 0.07821699 0.3051598 0.026643032 -0.09741433 -0.013527368 0.021922888 0.06428784
-0.07820746 0.116416946 0.09413741 0.22734834 0.06283053 -0.11426909 -0.0009147096 -0.029991768
-0.06318574 0.20375268 0.08422034 0.12880151 -0.16786109 0.14571929 0.091861516 0.36272827
-0.009603436 -0.16367963 0.19687998 -0.029538378 0.260735 0.1869568 0.27016792 -0.19085795
-0.027375821 -0.13963018 0.05562071 0.11877232 -0.026447516 -0.10372941 -0.04796742 0.19362724
-0.046907723 0.11803097 0.02417715 -0.035417393 0.20038436 0.06020654 -0.13736647 0.21104345
-0.14639162 -0.06564546 -0.009473427 -0.024666473 0.0011940845 0.018134492 -0.01496596 0.03483849
0.06863702 -0.10318792 -0.13336451 -0.055151846 0.041230664 -0.01635659 -0.025983302 0.07302698
-0.016172431 0.08938876 -0.13264179 0.0052894754 -0.1685472 -0.22282502 -0.28115985 -0.06256884
-0.015929483 -0.07510235 -0.07314285 -0.03896543 -0.16502587 -0.14201598 0.045377742 -0.17575078
-0.094652854 -0.0037834411 -0.17487177 -0.15657526 -0.05380204 -0.16451842 -0.13689099 -0.030520894
-0.13767837 -0.18433435 -0.23608913 -0.05056449 -0.122394376 -0.11739263 -0.21643381 -0.12484978
-0.06748451 -0.10912745 0.1060181 -0.093563996 -0.10366903 -0.18572079 -0.089158505 -0.16370967
-0.1574936 -0.083688244 -0.25100937 -0.20076223 -0.19673286 -0.15389222 -0.14518294 0.028303102
-0.0971503 -0.048945718 -0.22516516 -0.18879952 -0.1912653 0.018894214 -0.18734756 0.16418958
-0.10906804 0.086302735 -0.20676452 -0.13291387 -0.229765 -0.12338494 -0.06298173 -0.05886494
-0.19089694 -0.08760206 -0.22801644 0.09590224 -0.13338332 -0.2989808 -0.13146123 -0.24197105
-0.10218708 -0.089806035 -0.12665801 -0.03127151 -0.09365807 -0.20276228 -0.117378764 -0.27114576
0.015668979 0.11825387 0.07390772 -0.13547671 -0.101261884 0.13798212 0.006601013 -0.09286196
0.025457473 -0.07246187 0.09781977 -0.0028703008 -0.04898929 0.12682922 -0.055033926 0.027091427
0.01419133 -0.093739584 0.00079200655 -0.0838399 -0.012402939 -0.04204598 0.054267544 -0.014209841
-0.06957264 -0.029586557 0.16269632 -0.041363746 -0.078661434 0.00224823 0.007862484 0.058003258
-0.06370125 0.056007337 0.06082707 0.18917932 0.0025779733 0.1241976 0.0376884 0.0021249426
0.13111195 0.069545105 0.10744862 0.039075233 0.017940963 -0.17429602 -0.124226496 0.0876035
0.046329368 -0.03708475 -0.08911422 0.085560605 0.017885413 -0.058590695 0.055700008 0.13519147
-0.08076301 0.005508473 -0.07835315 0.065154314 -0.10000625 -0.16828434 -0.0602778 0.17802268
0.081488654 -0.08285329 -0.03572848 -0.09796419 -0.045817968 0.0116270315 -0.03875514 -0.06733525
0.07560482 -0.010792272 0.062089644 0.14277744 -0.0010464367 -0.041286793 -0.17493464 -0.01163244
-0.21053778 -0.21951391 -0.21183379 -0.063637115 -0.013266782 -0.10223485 -0.07086494 -0.090444766
-0.13325155 -0.2155536 -0.07102237 -0.20683312 -0.033796832 -0.15823597 -0.27289155 0.10392564
00000000: 85ed 663d ce1a 9fbc c132 92bd 87ef 9ebd
00000010: 19cf 3e3d 2baa 043d 6774 ab3d f4e6 d33d
00000020: 6e3c 283e 684b 17bd 82d9 09be 1554 afbc
00000030: 13da b2bd 41c5 13bd 86e7 bc3b fb39 af3d
00000040: 5a49 22be 3b30 a03d e83d 9c3e 7d42 da3c
00000050: 2a81 c7bd e5a1 5dbc a197 b33c 58a9 833d
00000060: 3c2b a0bd 026c ee3d 1dcb c03d 01ce 683e
00000070: 4bad 803d ea05 eabd 1fc9 6fba 4cb1 f5bc
00000080: 8667 81bd 8ba4 503e b77b ac3d 8be4 033e
00000090: c7e3 2bbe 7037 153e e421 bc3d 85b7 b93e
000000a0: bb57 1dbc a29b 27be e89a 493e 78fa f1bc
000000b0: 0f7f 853e 9a71 3f3e 7353 8a3e 4470 43be
000000c0: 4243 e0bc 37fb 0ebe 8bd2 633d e73e f33d
000000d0: 76a8 d8bc 1670 d4bd 7c79 44bd 3846 463e
000000e0: 5022 40bd 39ba f13d 290f c63c d411 11bd
000000f0: 8f31 4d3e 229b 763d cca9 0cbe c61b 583e
00000100: afe7 15be 2071 86bd 6f36 1bbc 5811 cabc
00000110: d482 9c3a c98e 943c c933 75bc ceb2 0e3d
00000120: 9191 8c3d 3054 d3bd b590 08be e7e6 61bd
00000130: 7ce1 283d 41fe 85bc efda d4bc 2b8f 953d
00000140: 0c7c 84bc 7411 b73d 40d3 07be 5653 ad3b
00000150: a397 2cbe 3e2c 64be 2ff4 8fbe 1824 80bd
00000160: 8c7e 82bc 43cf 99bd ebcb 95bd 379a 1fbd
00000170: 8bfc 28be a36c 11be 03de 393d 03f8 33be
00000180: 5bd9 c1bd 9cf3 77bb 9611 33be 4455 20be
00000190: 875f 5cbd 8477 28be 272d 0cbe f406 fabc
000001a0: 8ffb 0cbe 25c2 3cbe 59c1 71be b61c 4fbd
000001b0: e7a9 fabd 8c6b f0bd d3a0 5dbe 3eb1 ffbd
000001c0: 5235 8abd 367e dfbd 0520 d93d 7b9e bfbd
000001d0: 6e50 d4bd 972d 3ebe bc98 b6bd 82a3 27be
000001e0: 0146 21be be64 abbd 4d84 80be 9d94 4dbe
000001f0: 5774 49be ec95 1dbe d6aa 14be e8db e73c
00000200: bdf6 c6bd 4e7b 48bd b291 66be a954 41be
00000210: 0ddb 43be 0ac8 9a3c 0ad8 3fbe 5021 283e
00000220: 115f dfbd 7dbf b03d 14ba 53be 931a 08be
00000230: 8447 6bbe 3eb1 fcbd 91fc 80bd 5d1c 71bd
00000240: 7d7a 43be b568 b3bd 247d 69be 6568 c43d
00000250: a395 08be 0314 99be c69d 06be 42c7 77be
00000260: 7647 d1bd 3aec b7bd a3b2 01be 8e16 00bd
00000270: cdcf bfbd eaa0 4fbe 4764 f0bd 9ed3 8abe
00000280: 3b5c 803c 162f f23d ee5c 973d 68ba 0abe
00000290: 6462 cfbd 2f4b 0d3e 4f4d d83b 692e bebd
000002a0: 318c d03c e466 94bd bb55 c83d a81b 3cbb
000002b0: fea8 48bd 85df 013e 416b 61bd d7ee dd3c
000002c0: c182 683c 8afa bfbd a99e 4f3a 41b4 abbd
000002d0: b235 4bbc 6838 2cbd a547 5e3d 65d0 68bc
000002e0: 1a7c 8ebd 825f f2bc dd99 263e 086d 29bd
000002f0: 3f19 a1bd 0a57 133b a6d1 003c d394 6d3d
00000300: cd75 82bd f367 653d ce25 793d 39b8 413e
00000310: 37f3 283b 505b fe3d 275f 1a3d 9f42 0b3b
00000320: 3642 063e aa6d 8e3d 060e dc3d 5a0d 203d
00000330: edf8 923c a87a 32be 766a febd 7769 b33d
00000340: ddc3 3d3d 2ee6 17bd 8481 b6bd 663a af3d
00000350: 6e84 923c ccfc 6fbd b125 643d a26f 0a3e
00000360: 1467 a5bd 6c80 b43b 9e77 a0bd a06f 853d
00000370: 14d0 ccbd bb52 2cbe dbe5 76bd 944b 363e
00000380: 86e3 a63d fcae a9bd 0758 12bd 73a1 c8bd
00000390: 9fab 3bbd 4e7f 3e3c b6bd 1ebd 10e7 89bd
000003a0: b3d6 9a3d 12d2 30bc b651 7e3d 4034 123e
000003b0: 9728 89ba 571c 29bd 1122 33be fd95 3ebc
000003c0: 3797 57be 41c8 60be f5ea 58be 2d54 82bd
000003d0: eb5c 59bc 8160 d1bd a321 91bd 1b3b b9bd
000003e0: 1873 08be 15ba 5cbe 2d74 91bd 10cc 53be
000003f0: 8c6e 0abd 9c08 22be 71b8 8bbe f7d6 d43d

fc.weight f4 [64, 80]
0.24376951 0.29351124 0.077564456 -0.26157463 -0.07852237 0.025444493 0.04475497 -0.07333271
0.25867507 -0.13893883 0.15786411 0.079890065 -0.17414352 0.043146115 0.21662807 -0.123290055
-0.04841433 0.21538262 -0.122282684 -0.07242246 -0.21730612 -0.58461356 0.17253098 -0.32201046
-0.2981756 -0.0047229175 -0.16867478 -0.061782923 -0.22895607 0.13643287 -0.06892652 0.09096335
-0.25888044 -0.067450024 0.2942615 0.28124654 -0.17562611 0.3274882 -0.08780215 -0.3372287
-0.12755479 -0.07663838 0.11229294 0.41854495 -0.6181494 -0.34543908 0.0053704386 0.10731587
-0.04697647 -0.15984468 -0.07094341 0.08781638 0.2828574 0.019905223 -0.26902017 0.37735903
-0.15304102 -0.2662172 -0.5989181 0.06263155 -0.42886063 -0.41027653 0.17032658 0.38885084
0.16211459 0.032223746 -0.08734294 -0.25397393 -0.13163388 -0.5529844 -0.032609366 0.024784822
-0.020255398 -0.13644108 -0.18786882 0.1677074 0.08200122 0.0039123837 -0.059611447 -0.33530217
0.08956732 0.010835173 -0.10927122 0.06600224 -0.10556042 0.036441967 -0.074604966 0.074186884
0.014939993 -0.022376139 0.04209363 -0.11921652 0.23112014 -0.064715594 0.23365694 0.03852899
-0.041014563 -0.057797752 0.044805158 0.19469343 0.013549191 -0.27193436 0.109499566 -0.040885948
-0.004662058 -0.42241183 -0.36248454 0.5480791 -0.19960463 -0.15003778 -0.2400935 0.44173312
-0.16818225 0.08869192 0.041791506 0.031229611 0.20344101 0.012711085 -0.15581265 -0.2610579
0.11182351 -0.009105777 0.24511816 -0.10102515 -0.59126663 0.12470439 0.020717822 -0.004260058
0.13342123 -0.05222221 0.05651555 0.28310367 0.11590234 0.05603946 -0.3190426 0.17911056
0.04417633 -0.11364429 -0.1557263 -0.14908932 -0.16556022 -0.15115805 0.09712096 0.021857468
0.08967021 -0.034224946 0.028922573 -0.12352136 0.019972017 -0.23912388 0.028711561 0.4413742
-0.5968667 -0.13095123 0.32287264 -0.44191232 -0.08218602 0.33154684 0.1727466 -0.14721012
0.14636071 0.12207589 0.07441854 -0.20882675 -0.324486 0.015330543 -0.08193359 -0.17047228
0.053387415 -0.18004678 0.13159688 0.13144907 0.0017625393 0.23611729 -0.0016405585 0.24043383
-0.10533477 -0.18077154 0.32626924 -0.033966653 0.038255386 -0.29836917 0.2292487 -0.12828383
-0.058166623 -0.21286158 -0.115787216 0.13546667 -0.13725644 0.23642543 0.15234742 -0.17845443
-0.16797714 0.21097417 0.1882806 0.08851177 -0.015640529 0.20827651 -0.2601826 -0.14683065
-0.17146805 0.0072421166 0.1649845 0.17728269 -0.40448248 -0.09215238 -0.47351113 -0.057795282
-0.09411011 -0.06573148 -0.034069683 0.47760716 0.15363163 0.06594957 -0.57389224 0.23442991
-0.14225186 -0.072124414 -0.2619418 -0.15438661 -0.26998827 -0.21107869 0.07658454 0.14958377
-0.108545765 0.17117473 -0.054205444 -0.16695464 -0.082976416 -0.2863749 -0.07586061 -0.07670862
-0.04897747 -0.20320284 -0.009061673 -0.04526968 -0.05096515 0.42191127 -0.07936967 0.006598188
-0.05047384 -0.029068016 0.07097374 -0.024933243 -0.057615004 0.035454806 -0.10323233 -0.22536193
-0.05056692 -0.0954843 -0.0065017277 0.111964844 -0.18212347 0.2861349 -0.016304199 0.16256313
00000000: b79e 793e 1b47 963e 1dda 9e3d 1ced 85be
00000010: 56d0 a0bd f870 d03c fd50 373d 762f 96bd
00000020: 0f71 843e fb45 0ebe 21a7 213e 679d a33d
00000030: ae52 32be fbb9 303d c0d3 5d3e 7f7f fcbd
00000040: 1b4e 46bd 438d 5c3e 586f fabd 3a52 94bd
00000050: 7f85 5ebe 3ca9 15bf f6ab 303e 8ede a4be
00000060: 79aa 98be b4c2 9abb 15b9 2cbe 1710 7dbd
00000070: 7673 6abe 0fb5 0b3e 5929 8dbd fe4a ba3d
00000080: fa8b 84be 3d23 8abd 71a9 963e 8cff 8f3e
00000090: 55d7 33be 89ac a73e 9dd1 b3bd 3da9 acbe
000000a0: b99d 02be 95f4 9cbd d7f9 e53d 864b d63e
000000b0: 0a3f 1ebf 64dd b0be 81fa af3b 6cc8 db3d
000000c0: 666a 40bd 53ae 23be c74a 91bd 13d9 b33d
000000d0: afd2 903e 4710 a33c 03bd 89be 3435 c13e
000000e0: c9b6 1cbe 9f4d 88be b252 19bf f844 803d
000000f0: 9f93 dbbe c40f d2be 176a 2e3e 7517 c73e
00000100: 5e01 263e 0cfd 033d dbe0 b2bd df08 82be
00000110: 08cb 06be 6390 0dbf 6691 05bd 8a09 cb3c
00000120: a6ee a5bc 36b7 0bbe af60 40be 7dbb 2b3e
00000130: 41f0 a73d 7433 803b 222b 74bd baac abbe
00000140: 126f b73d 0286 313c 97c9 dfbd 2f2c 873d
00000150: 1030 d8bd 2c44 153d 7dca 98bd 4bef 973d
00000160: dfc6 743c 2a4e b7bc 5f6a 2c3d ca27 f4bd
00000170: c2aa 6c3e 9c89 84bd c443 6f3e 93d0 1d3d
00000180: e3fe 27bd 56bd 6cbd 9d85 373d b75d 473e
00000190: 6dfd 5d3c fb3a 8bbe 4f41 e03d 0678 27bd
000001a0: 2dc4 98bb 5d46 d8be 9397 b9be e94e 0c3f
000001b0: 2865 4cbe 81a3 19be 12db 75be d82a e23e
000001c0: f837 2cbe 1ca4 b53d 922d 2b3d 3ed5 ff3c
000001d0: d752 503e 2842 503c 5a8d 1fbe 62a9 85be
000001e0: b903 e53d 6630 15bc 4100 7b3e 46e6 cebd
000001f0: 405d 17bf 0465 ff3d 6cb8 a93c f597 8bbb
00000200: 939f 083e f5e6 55bd d97c 673d f7f2 903e
00000210: 355e ed3d a289 653d 8d59 a3be c268 373e
00000220: 3df2 343d 56be e8bd b776 1fbe dfaa 18be
00000230: 9e88 29be 2dc9 1abe 5be7 c63d 6f0e b33c
00000240: 04a5 b73d 752f 0cbd 08ef ec3c c4f8 fcbd
00000250: 5b9c a33c e4dc 74be 8234 eb3c cdfb e13e
00000260: 42cc 18bf 1418 06be 904f a53e 5542 e2be
00000270: 2551 a8bd 82c0 a93e 7ce4 303e 40be 16be
00000280: 95df 153e ed02 fa3d bf68 983d aed6 55be
00000290: 0723 a6be f52c 7b3c cccc a7bd 4990 2ebe
000002a0: c3ac 5a3d 2f5e 38be 55c1 063e 969a 063e
000002b0: 0105 e73a bbc8 713e 0208 d7ba 4934 763e
000002c0: c2b9 d7bd 2d1c 39be c30c a73e 9e20 0bbd
000002d0: aeb1 1c3d d8c3 98be 2cc0 6a3e d65c 03be
000002e0: 2040 6ebd 63f8 59be d921 edbd c6b7 0a3e
000002f0: f48c 0cbe 8219 723e f600 1c3e c2bc 36be
00000300: 3302 2cbe 9d09 583e a1cc 403e a945 b53d
00000310: 9120 80bc 7046 553e a736 85be c65a 16be
00000320: 5295 2fbe 474f ed3b b2f1 283e 9889 353e
00000330: 5418 cfbe 63ba bcbd 0d70 f2be bfba 6cbd
00000340: cdbc c0bd 3a9e 86bd a78c 0bbd ed88 f43e
00000350: 9c51 1d3e 9110 873d 9aea 12bf 650e 703e
00000360: 79aa 11be f7b5 93bd 3c1d 86be 8617 1ebe
00000370: e73b 8abe 0325 58be 5bd8 9c3d 7d2c 193e
00000380: 3e4d debd 6e48 2f3e 8706 5ebd 28f6 2abe
00000390: 8aef a9bd bb9f 92be cf5c 9bbd 6919 9dbd
000003a0: 999c 48bd 6814 50be 6977 14bc b36c 39bd
000003b0: d5c0 50bd c104 d83e 918c a2bd 9d35 d83b
000003c0: a8bd 4ebd 0c20 eebc ae5a 913d cd40 ccbc
000003d0: b6fd 6bbd 0f39 113d 796b d3bd 47c5 66be
000003e0: 421f 4fbd 468d c3bd 720c d5bb d34d e53d
000003f0: 937e 3abe 4680 923e 6290 85bc f376 263e

fc.bias f4 [64]
0.017959388 -0.078654334 0.064854264 -0.060634162 -0.016594317 0.046401303 -0.06972855 0.09527696
0.0026039507 0.07019633 -0.13156512 -0.14195435 0.028834179 0.07174465 0.037549816 -0.13660756
-0.025501255 0.00030996816 -0.029722162 -0.113657765 -0.052735683 0.01237396 -0.031743545 0.014409531
-0.0015870439 0.031915125 0.041669182 -0.08301595 -0.098814584 0.017517058 -0.117741585 0.047509186
0.05112421 -0.0064098057 -0.01370325 -0.14868572 0.03922139 -0.058308136 0.09446538 0.11603856
0.1283412 0.08236448 -0.13722602 0.07748584 -0.08623565 -0.15152143 -0.097970344 -0.041735534
-0.13481191 -0.09262166 0.025409177 -0.09558221 -0.080838114 -0.0067947074 0.022234907 0.04460479
0.01922976 -0.04009434 0.00085052534 -0.059164245 -0.08737457 -0.073475584 0.035598315 0.086827815
00000000: 911f 933c 8615 a1bd 50d2 843d 875b 78bd
00000010: cef0 87bc 4b0f 3e3d d8cd 8ebd 9120 c33d
00000020: 0ba7 2a3b 18c3 8f3d 02b9 06be 7b5c 11be
00000030: a835 ec3c dcee 923d d6cd 193d dae2 0bbe
00000040: 02e8 d0bc 3983 a239 e47b f3bc 67c5 e8bd
00000050: 5f01 58bd 26bc 4a3c 8505 02bd f415 6c3c
00000060: 5b04 d0ba 6fb9 023d 4ead 2a3d 4404 aabd
00000070: 4d5f cabd ef7f 8f3c 8022 f1bd fe98 423d
00000080: 9f67 513d 5909 d2bb 9983 60bc 1241 18be
00000090: 9ca6 203d 83d4 6ebd 1177 c13d a0a5 ed3d
000000a0: e06b 033e b5ae a83d fa84 0cbe e5b0 9e3d
000000b0: 519c b0bd 6f28 1bbe ada4 c8bd e1f2 2abd
000000c0: 220c 0abe 6db0 bdbd e826 d03c 9bc0 c3bd
000000d0: 748e a5bd 23a6 debb fb25 b63c 83b3 363d
000000e0: bb87 9d3c f639 24bd caf5 5e3a 3556 72bd
000000f0: 70f1 b2bd 5e7a 96bd 8acf 113d c8d2 b13d

fc1.weight f4 [20, 64]
0.043653663 -0.41377255 -0.32166892 0.25792748 0.15160647 -0.0838559 0.06469292 0.23392622
-0.21523915 -0.35171366 -0.12606108 -0.29443657 -0.25373822 -0.42755914 0.41854516 -0.4625881
0.16253868 0.48290488 0.39264432 -0.14076783 0.23285106 -0.19244784 0.096562766 0.36230943
-0.14550723 0.24949566 -0.22176914 0.11229528 0.48247826 -0.058027547 -0.28005463 -0.0046581803
0.17027372 -0.15862711 0.44474602 0.043982897 0.2279413 -0.33051598 -0.32979682 0.2636423
-0.3235686 -0.17657971 0.42253777 -0.2190593 0.4998843 0.34055993 -0.26029456 -0.0314494
0.38541684 0.05998589 0.38124454 -0.3393156 0.2320198 0.12843043 0.34317246 -0.10910949
-0.3213735 -0.18814999 0.1489076 -0.31053177 0.38517368 -0.2881585 -0.062228713 0.47495988
-0.028704543 -0.25814682 -0.30564547 0.09445611 -0.19735606 -0.2648812 0.073985554 0.2171837
-0.12871511 -0.35047215 -0.22483496 -0.26423427 -0.34738433 -0.28547108 -0.008186344 -0.4001134
0.37827912 0.28888896 0.47405165 -0.44567338 -0.09175334 -0.008122274 0.009598166 0.2734667
-0.14815871 0.019772172 0.0002908494 -0.22404283 0.404241 0.14947774 -0.026123598 0.085361734
0.14437772 0.089090444 0.49009192 -0.20522903 0.2637554 0.014960755 0.11804551 0.42813876
0.06731355 0.14908089 0.026740378 0.16060382 0.20601758 -0.14654304 -0.46250308 -0.26306817
0.22956884 0.2826393 0.32711777 -0.27674618 -0.17193533 0.39817432 -0.1411833 0.042051267
-0.36911666 -0.35114014 0.2991218 -0.50567776 0.01917719 -0.4576322 -0.18367249 0.5392116
0.020064157 0.07984783 -0.43812683 -0.31944636 -0.3942092 -0.033248927 0.46386108 -0.30735117
-0.45803463 0.17676327 0.26653403 0.041210424 0.08708182 0.07860943 -0.26997265 0.19257385
0.21932945 -0.15410829 0.24446116 -0.33190703 -0.28892198 -0.3049329 0.41795826 0.38285354
0.16524018 -0.31659395 0.40313002 0.286157 -0.096974105 0.22454157 0.32121116 -0.2372167
-0.24555314 -0.46027997 -0.0019308234 0.43231845 -0.32663783 0.2307349 -0.44357827 -0.123786695
-0.17135221 -0.30974668 0.37694433 0.14804158 -0.21049137 -0.058083925 -0.22366254 0.07051399
-0.038591165 0.2830791 -0.20116939 0.31887257 -0.0147900535 0.13698539 -0.24467126 0.31349275
0.23909773 -0.33655897 -0.050368357 -0.050477847 -0.10544598 -0.049376156 -0.39322194 0.09344564
0.5295739 -0.097392604 0.13321133 -0.024494931 -0.19800198 -0.12369477 -0.06423133 0.108064055
-0.23811188 -0.08185718 -0.18514565 -0.47408095 -0.27962303 0.28104123 -0.17691246 -0.1641992
0.17802632 0.17262436 0.060780462 -0.033172015 0.070729196 0.313545 -0.2856152 0.14965293
-0.3334176 -0.0059290463 0.1023971 -0.3825414 -0.06503082 -0.14137477 -0.0894161 0.062456943
0.3258626 0.10806287 0.2074846 -0.1467507 0.1099858 0.11413027 0.24471435 0.3550371
0.12863128 0.13480042 -0.2091821 0.27359128 0.2181898 -0.19860338 -0.4284205 -0.57013595
-0.23480757 0.026091719 -0.040440656 -0.11218375 -0.0859125 0.30431646 -0.1875513 -0.053473316
-0.35857055 -0.20772946 0.34574056 -0.26844558 -0.038594086 -0.31809312 0.055145033 0.08049931
00000000: 2fce 323d ffd9 d3be cab1 a4be 120f 843e
00000010: ba3e 1b3e a4bc abbd b97d 843d 5b8a 6f3e
00000020: a767 5cbe d013 b4be 2816 01be 64c0 96be
00000030: fae9 81be 08e9 dabe 8d4b d63e 59d8 ecbe
00000040: 8a70 263e 4f3f f73e ad08 c93e 7125 10be
00000050: 8270 6e3e 0c11 45be b3c2 c53d 9f80 b93e
00000060: d9ff 14be ca7b 7f3e 7317 63be 11fb e53d
00000070: 6407 f73e 4bae 6dbd 5263 8fbe a6a3 98bb
00000080: 3c5c 2e3e 256f 22be c0b5 e33e 6927 343d
00000090: 7269 693e 6439 a9be 21db a8be 20fc 863e
000000a0: c9aa a5be 50d1 34be df56 d83e 1551 60be
000000b0: d6f0 ff3e df5d ae3e 5445 85be 16d1 00bd
000000c0: 5b55 c53e c4b3 753d 7c32 c33e c6ba adbe
000000d0: 9996 6d3e 4483 033e 4db4 af3e cc74 dfbd
000000e0: 118b a4be 64aa 40be 3c7b 183e 05fe 9ebe
000000f0: 7c35 c53e 8389 93be 89e3 7ebd f12d f33e
00000100: ca25 ebbc d22b 84be 907d 9cbe 3472 c13d
00000110: b517 4abe 829e 87be bd85 973d 6765 5e3e
00000120: e5cd 03be 1671 b3be 233b 66be b749 87be
00000130: 5cdc b1be 4429 92be 0420 06bc aadb ccbe
00000140: cdad c13e 41e9 933e e6b6 f23e 4d2f e4be
00000150: 2de9 bbbd 4913 05bc a041 1d3c d403 8c3e
00000160: ebb6 17be 40f9 a13c 257d 9839 7c6b 65be
00000170: adf8 ce3e b110 193e 2801 d6bc 22d2 ae3d
00000180: c1d7 133e 0d75 b63d 54ed fa3e 8f27 52be
00000190: f30a 873e f41d 753c d8c1 f13d 0135 db3e
000001a0: b0db 893d a9a8 183e a30e db3c 5475 243e
000001b0: 46f6 523e 610f 16be 34cd ecbe dfb0 86be
000001c0: 1814 6b3e 19b6 903e fb7b a73e adb1 8dbe
000001d0: d10f 30be 81dd cb3e 5b92 10be f33d 2c3d
000001e0: dcfc bcbe a4c8 b3be 7e26 993e 1974 01bf
000001f0: 7b19 9d3c c54e eabe a414 3cbe c509 0a3f
00000200: 965d a43c 4287 a33d 2952 e0be 798e a3be
00000210: cad5 c9be 0730 08bd 337f ed3e 225d 9dbe
00000220: 8483 eabe 6e01 353e 2677 883e 43cc 283d
00000230: f457 b23d fbfd a03d db39 8abe 1432 453e
00000240: e697 603e 90ce 1dbe 0754 7a3e b8ef a9be
00000250: 95ed 93be 2a20 9cbe a0fe d53e 6105 c43e
00000260: b934 293e 9a18 a2be 0f67 ce3e 2c83 923e
00000270: 5c9a c6bd 3aee 653e ca75 a43e efe8 72be
00000280: 4872 7bbe d1a9 ebbe af13 fdba d858 dd3e
00000290: 133d a7be c545 6c3e b11c e3be e183 fdbd
000002a0: f476 2fbe 1e97 9ebe d9fe c03e 3698 173e
000002b0: 0d8b 57be 69e9 6dbd cb07 65be a469 903d
000002c0: c511 1ebd beef 903e 59ff 4dbe 4443 a33e
000002d0: fb51 72bc e645 0c3e 1a8b 7abe 1f82 a03e
000002e0: 09d6 743e 7551 acbe 0d4f 4ebd dcc1 4ebd
000002f0: 10f4 d7bd a73e 4abd 6354 c9be 6d60 bf3d
00000300: 2892 073f c675 c7bd 8d68 083e 98a9 c8bc
00000310: 08c1 4abe af53 fdbd b78b 83bd b050 dd3d
00000320: 9ad3 73be bda4 a7bd d296 3dbe bdba f2be
00000330: c02a 8fbe a3e4 8f3e 8a28 35be d623 28be
00000340: 884c 363e 71c4 303e eff4 783d 61df 07bd
00000350: 78da 903d f888 a03e 283c 92be 9e3e 193e
00000360: b6b5 aabe 7248 c2bb 92b5 d13d 77dc c3be
00000370: e12e 85bd 8cc4 10be ca1f b7bd dad2 7f3d
00000380: 76d7 a63e 1150 dd3d d876 543e d145 16be
00000390: 3c40 e13d 22bd e93d 6696 7a3e 6cc7 b53e
000003a0: ebb7 033e 1f09 0a3e d533 56be 2814 8c3e
000003b0: 266d 5f3e af5e 4bbe ef59 dbbe 6ef4 11bf
000003c0: 6571 70be 4dbe d53c 1aa5 25bd 98c0 e5bd
000003d0: e5f2 afbd 5ecf 9b3e 730d 40be d606 5bbd
000003e0: 8f96 b7be 08b7 54be e804 b13e b371 89be
000003f0: d514 1ebd 1add a2be c2df 613d d2dc a43d

fc1.bias f4 [20]
0.11717264 0.04475915 -0.053565234 0.1885181 -0.051940553 0.15174253 -0.19661321 0.059119236
0.09129008 0.22024314 -0.08688528 -0.0950192 0.03271912 0.037951585 -0.07300575 -0.05856912
-0.23563546 0.024922935 -0.018769698 0.008720767
00000000: 36f8 ef3d 5f55 373d 3867 5bbd e40a 413e
00000010: 9ebf 54bd 6562 1b3e f954 49be 0327 723d
00000020: 4bf6 ba3d 6b87 613e e9f0 b1bd 6d99 c2bd
00000030: 7c04 063d 1f73 1b3d 0a84 95bd 2ce6 6fbd
00000040: 6c4a 71be 2f2b cc3c e9c2 99bc 8ce1 0e3c

fc2.weight f4 [6, 20]
-0.32861286 -0.51203215 0.22431803 -0.7995023 -0.06351507 0.18496227 0.27510002 0.56544805
0.042539332 -0.51917464 -0.022023791 -0.09921103 -0.049101114 -0.28927276 -0.2971495 0.05636948
0.37789303 0.51063806 -0.4009775 -0.15358269 -0.56480354 -0.18173872 0.44280422 0.06770463
-0.41499564 0.06580097 0.5497918 -0.22820738 -0.15404965 -0.17500189 -0.13009664 -0.27587232
0.042894468 0.30019367 -0.1281751 -0.058586273 0.41528124 -0.20030314 0.0746733 -0.311278
-0.34130108 -0.33634618 -0.06672329 0.07408969 -0.036568932 0.29056782 0.18189093 -0.29046556
-0.7845162 -0.4717083 -0.26149642 -0.11981768 -0.68586385 -0.4467368 0.30258688 -0.31785858
0.42592773 -0.18346432 0.5044577 -0.17407842 0.07043633 -0.11855298 -0.4181496 -0.08643326
0.412823 -0.41482323 -0.21186832 -0.11020147 -0.26791367 -0.06316438 0.1860845 0.5619363
-0.38049546 -0.5214784 -0.11799722 0.37937242 -0.032907695 0.030865736 0.0030267853 0.48287892
0.50063473 0.33692563 0.30589226 0.07358613 0.5777279 0.27736554 0.0056405533 -0.15171884
0.11423297 -0.06811484 -0.016972162 -0.09588316 0.09626844 0.0016459203 0.4344521 -0.56046337
-0.18116842 -0.1355459 0.07519294 -0.19331971 -0.0042349203 0.16867846 -0.26692086 0.19111314
-0.27087736 -0.37598678 -0.22009349 -0.16125585 0.13553126 0.38113016 -0.035654884 -0.17445016
0.1280722 0.28326604 -0.25792134 0.3756074 -0.11602548 -0.25087914 -0.08780682 -0.1368849
00000000: f23f a8be 8a14 03bf a0b3 653e 2fac 4cbf
00000010: 3014 82bd c066 3d3e e9d9 8c3e 34c1 103f
00000020: b93d 2e3d a1e8 04bf 3d6b b4bc 272f cbbd
00000030: 401e 49bd 8f1b 94be fb23 98be afe3 663d
00000040: 327b c13e 2db9 023f ec4c cdbe c844 1dbe
00000050: f796 10bf b719 3abe 3cb7 e23e baa8 8a3d
00000060: 4f7a d4be a9c2 863d 28bf 0c3f 32af 69be
00000070: 31bf 1dbe b233 33be 0e38 05be 233f 8dbe
00000080: 1cb2 2f3d fcb2 993e 5540 03be 29f8 6fbd
00000090: be9f d43e 441c 4dbe 51ee 983d d45f 9fbe
000000a0: 04bf aebe 9135 acbe 38a6 88bd 56bc 973d
000000b0: 4ec9 15bd 4ec5 943e 9e41 3a3e e7b7 94be
000000c0: 0ed6 48bf c083 f1be dce2 85be f962 f5bd
000000d0: c694 2fbf b0ba e4be abec 9a3e 5cbe a2be
000000e0: 3313 da3e 12de 3bbe 2424 013f 9d41 32be
000000f0: ec40 903d e8cb f2bd b417 d6be ec03 b1bd
00000100: 895d d33e b663 d4be 02f4 58be 4fb1 e1bd
00000110: fb2b 89be 545c 81bd ef8c 3e3e 0fdb 0f3f
00000120: 4dd0 c2be 9c7f 05bf 87a8 f1bd 1a3d c23e
00000130: 38ca 06bd 24da fc3c 085d 463b e83b f73e
00000140: 9929 003f 8481 ac3e e99d 9c3e 53b4 963d
00000150: fae5 133f db02 8e3e 64d4 b83b 2f5c 1bbe
00000160: faf2 e93d cb7f 8bbd 3409 8bbc 645e c4bd
00000170: 6328 c53d ecbb d73a 8170 de3e 877a 0fbf
00000180: 3784 39be 8bcc 0abe c2fe 993d 9af5 45be
00000190: 16c5 8abb 0cba 2c3e daa9 88be 2ab3 433e
000001a0: 70b0 8abe 5781 c0be 3060 61be 4120 25be
000001b0: b5c8 0a3e 7e23 c33e db0a 12bd 10a3 32be
000001c0: 5c25 033e 3f08 913e 440e 84be 9d4f c03e
000001d0: c49e edbd 3b73 80be 10d4 b3bd 8e2b 0cbe

fc2.bias f4 [6]
-0.24901229 -0.13624763 -0.22744039 -0.09176587 0.16051333 -0.0055554016
00000000: 14fd 7ebe 8084 0bbe 22e6 68be bfef bbbd
00000010: 9b5d 243e 160a b6bb
